extensive_form/perfect_games/TicTacToe/checkpoints/model_-1.pth (torch, 165953 bytes, 11 tensors)

critic.0.weight f4 [128, 27]
0	0x3d56a081	0.052399162
1	0xbe38fc45	-0.18064983
2	0xbb96dc4d	-0.0046038986
3	0x3d477e55	0.048704464
4	0x3d36d7e8	0.044639498
5	0x3db11512	0.08646597
6	0xbe0d3bfa	-0.1379241
7	0xbe42e499	-0.19032516
8	0xbb3db35f	-0.0028946025
9	0xbe14c4b6	-0.14528164
10	0x3d97d064	0.07412794
11	0x3d8de8a5	0.06929139
12	0xbe6c2134	-0.23059541
13	0xbe1ca91f	-0.1529889
14	0xbd04dbb7	-0.0324361
15	0xbb9268e9	-0.0044680727
16	0x3d45f044	0.04832484
17	0xbd4742b4	-0.048647597
18	0xbb956b3e	-0.0045599034
19	0xbcca4a63	-0.024693673
20	0xbe451f60	-0.1925025
21	0xbdffdeee	-0.12493692
22	0xbdf3e5ed	-0.11909089
23	0xbe2d46ca	-0.16921535
24	0xbd6e6662	-0.05820311
25	0xbe2c6c54	-0.16838199
26	0x3cd54c92	0.026037488
27	0xbe622f7e	-0.2208843
28	0xbd9198a5	-0.07109193
29	0xbe65d8f0	-0.22446036
30	0xbe3698ff	-0.17831801
31	0xbd266de9	-0.040632162
32	0xbe03c4b4	-0.12868005
33	0xbe0e5602	-0.13899997
34	0xbdd06b02	-0.1017666
35	0x3e08c5c2	0.13356689
36	0xbd96033c	-0.07324836
37	0xbdb1be51	-0.08678878
38	0xbe1350bd	-0.14386268
39	0xbcc908bb	-0.024540296
40	0x3cb9b68b	0.022670051
41	0xbe290c2a	-0.16508546
42	0xbd4e9430	-0.05043429
43	0xbe2dd84b	-0.1697704
44	0x3dd8d904	0.105882674
45	0x3e008586	0.12550935
46	0x3c226ccb	0.009913634
47	0x3dc6398d	0.09678946
48	0xbe5c5a84	-0.21518904
49	0x3db774c3	0.089578174
50	0x3c289430	0.010289237
51	0xbdb71b0a	-0.08940704
52	0x3c9d0d6f	0.019171445
53	0x3d1bf2cb	0.038073342
54	0xbe8574d3	-0.26065692
55	0x3c1e0809	0.00964547
56	0xbe3373a8	-0.17524588
57	0xbde5364f	-0.11191999
58	0x3bd22512	0.0064131105
59	0x3d4f8ff4	0.050674394
60	0xbe6ef6c1	-0.23336317
61	0x3dcae95a	0.099077895
62	0xbd84580b	-0.06462105
63	0x3df4b541	0.11948634
64	0xbdbee6c6	-0.0932136
65	0xbe4d92a4	-0.2007547
66	0xbe46e59c	-0.19423527
67	0xbdea68b1	-0.114457496
68	0x3de42990	0.1114074
69	0x3dba3d37	0.09093707
70	0xbd2fc6ca	-0.04291419
71	0xbdae52f8	-0.08511919
72	0xbe4d3968	-0.2004143
73	0xbe84fca7	-0.25974008
74	0x3c5d0b48	0.013491459
75	0x3bf6d2bf	0.007532447
76	0x3d5bd455	0.053669292
77	0xbe0f0256	-0.13965735
78	0xbd551d8b	-0.052030127
79	0xbe13cf66	-0.14434585
80	0xbdaa49b4	-0.08314839
81	0x3d88c8f5	0.066789545
82	0x3de8cba6	0.11366968
83	0xbd6fc45e	-0.05853688
84	0xbd7d0501	-0.06177235
85	0xbd4ba5eb	-0.04971878
86	0x3d5904d4	0.05298312
87	0xbe780626	-0.24221095
88	0xbe6b2a77	-0.22965418
89	0xbcb0d29b	-0.0215848
90	0xbe7cb8d9	-0.24679889
91	0x3c3115bc	0.010808405
92	0x3c8cf486	0.017206442
93	0x3d65157b	0.05592869
94	0x3d2d2cdf	0.04227912
95	0xbe35251c	-0.17689937
96	0xbe5b9786	-0.2144452
97	0xbe5d34f3	-0.2160223
98	0xbe64ebcf	-0.22355579
99	0x3ce134c2	0.027490977
100	0x3dc5c061	0.09655834
101	0x3cba76c4	0.02276171
102	0x3cd22d9b	0.025656512
103	0xbdf33b3a	-0.11876531
104	0x3de6ec3f	0.11275529
105	0xbd8a2cf2	-0.06746854
106	0x3da4fe0f	0.0805627
107	0xbe2d8548	-0.16945374
108	0xbd172d3e	-0.03690838
109	0xbe3c2175	-0.18372138
110	0xbe5307a9	-0.20608391
111	0xbcc14db0	-0.023596615
112	0xbe5bd9dc	-0.21469826
113	0x3d3c0fcc	0.045913503
114	0xbcd65f76	-0.026168566
115	0xbdd3e6ac	-0.103467315
116	0x3e078e8f	0.13237976
117	0xbe759442	-0.23982337
118	0xbe0e3ac8	-0.13889611
119	0xbe7c2f55	-0.2462743
120	0xbcd36e88	-0.025809541
121	0xbdd2b1c7	-0.102878146
122	0x3bb83c73	0.0056224405
123	0xbe2d1a18	-0.16904485
124	0xbe30041d	-0.17189069
125	0xbd12175b	-0.035666805
126	0xbc3f7255	-0.011684974
127	0xbd7e39f0	-0.062066972
128	0xbe3568aa	-0.17715707
129	0x3bc75f7d	0.006084381
130	0xbdb6bbfd	-0.08922575
131	0xbd6abf3c	-0.05731128
132	0x3cc0b4f9	0.023523794
133	0xbe7ab1a9	-0.24481834
134	0xbd6e1b20	-0.058131337
135	0x3d20c1da	0.03924737
136	0xbe43d969	-0.19125904
137	0xbe28760b	-0.1645128
138	0xbe1bed6f	-0.15227292
139	0x3dcb2e24	0.0992091
140	0xbe6eac91	-0.23308016
141	0x3ded2c82	0.11580755
142	0x3dea0ff6	0.114288256
143	0x3ba9b6d0	0.0051792637
144	0xbe75a105	-0.23987205
145	0xbe09ed84	-0.13469511
146	0xbe0be6d7	-0.13662277
147	0x3d16485e	0.03669011
148	0xbe33c16b	-0.17554252
149	0xbe52c9ca	-0.20584789
150	0xbd37331f	-0.044726487
151	0xbd2477a3	-0.040153157
152	0xbdc4c9d7	-0.096088104
153	0x3df0ded0	0.11761248
154	0x3d1da6ac	0.03848903
155	0x3ba7a43f	0.005116015
156	0xbcec884a	-0.028873581
157	0x3db3e771	0.08784378
158	0x3d6bf22e	0.057604007
159	0xbe743b7f	-0.23850821
160	0xbe6fa4d4	-0.2340272
161	0xbd5e9d71	-0.054349367
162	0xbdec9956	-0.11552684
163	0xbcec7bb3	-0.028867578
164	0x3d45ef14	0.048323706
165	0xbe211b56	-0.15733084
166	0xbe6c0ca2	-0.23051694
167	0xbdb0b265	-0.08627776
168	0xbe04f897	-0.12985454
169	0x3db0f34e	0.08640157
170	0x3d96e612	0.07368101
171	0x3e0542f3	0.1301382
172	0xbce2d924	-0.027691431
173	0xbe57bbda	-0.21067753
174	0xbe477dd1	-0.19481589
175	0xbcaf08d1	-0.021366509
176	0xbe1ba471	-0.15199448
177	0xbe000966	-0.12503585
178	0xbdee1a4d	-0.1162611
179	0xbe7918f6	-0.24325928
180	0xbe5028e1	-0.20328094
181	0xbe7fb421	-0.24971057
182	0xbe0165f2	-0.12636545
183	0xbe128e75	-0.14312156
184	0x3d9153d2	0.070960656
185	0x3dfe48a3	0.12416198
186	0xbaa9df02	-0.0012960138
187	0xbe1cca75	-0.15311606
188	0x3dbc259f	0.09186863
189	0x3dacde7e	0.084408745
190	0x3d2a28ea	0.041542925
191	0xbd8e2987	-0.069415145
192	0xbe0efea8	-0.13964331
193	0x3d8de1f9	0.069278665
194	0xbe89d13b	-0.26917443
195	0xbe60bc0d	-0.21946736
196	0x3d606bb3	0.05479021
197	0xbdf34df5	-0.118801035
198	0xbd402ae6	-0.04691591
199	0xbe018110	-0.1264689
200	0xbe4e7726	-0.20162639
201	0xbd43dedc	-0.047819957
202	0xbd685648	-0.05672291
203	0xbd80973a	-0.06278844
204	0xbe567eb0	-0.20946765
205	0xbc69432a	-0.014237205
206	0xbe39bdab	-0.18138759
207	0x3d3ee658	0.04660639
208	0xbdc4d79b	-0.09611436
209	0x3da0dac9	0.0785423
210	0xbe02de91	-0.12780215
211	0xbd57ecd8	-0.052716106
212	0x3db0dd22	0.08635928
213	0xbd9be575	-0.07612125
214	0xbe502a49	-0.2032863
215	0x3dacc8be	0.08436726
216	0xbe0e0904	-0.13870627
217	0xbe86402c	-0.26220834
218	0xbea3a3d4	-0.31960928
219	0xbe37cc08	-0.17948925
220	0xbd0cd376	-0.034381352
221	0xbefdd7fe	-0.4957885
222	0xbe4648b2	-0.19363669
223	0xbec95135	-0.3931977
224	0xbe8a659e	-0.27030653
225	0xbf053c7d	-0.5204542
226	0xbea9e4d2	-0.3318239
227	0xbd904678	-0.07044691
228	0xbe63f097	-0.22259746
229	0xbe8d9b58	-0.2765758
230	0x3ca058b1	0.019573541
231	0xbe4c2a3d	-0.19937988
232	0xbed4fd33	-0.41599426
233	0xbe33b43a	-0.1754922
234	0xbdd4d6a7	-0.10392504
235	0xbdb44b5e	-0.08803438
236	0xbebb5c57	-0.36593887
237	0xbe00591d	-0.12533994
238	0xbc02f0d5	-0.007991989
239	0xbea982ca	-0.33107597
240	0xbe0a14ba	-0.13484469
241	0xbed0ca3c	-0.40779293
242	0xbe310b6b	-0.17289512
243	0xbe0dc75a	-0.13845578
244	0xbe3cd528	-0.18440688
245	0xbd6af02c	-0.057357952
246	0xbdaed08b	-0.0853587
247	0x3d0461a9	0.0323197
248	0xbdd3928b	-0.10330685
249	0xbd8de1fc	-0.06927869
250	0x3d0b6fe2	0.034042247
251	0x3a1293f5	0.00055915053
252	0xbdb0b4ba	-0.08628221
253	0x3d27ad3f	0.040936705
254	0xbe758475	-0.2397631
255	0xbd8e66cc	-0.06953201

critic.0.bias f4 [128]
0	0x3ca29d62	0.019850437
1	0xbe147598	-0.14497983
2	0xbe6e76bd	-0.23287483
3	0xbe0edce5	-0.13951452
4	0xbdaa454c	-0.083139986
5	0x3b542f35	0.003237677
6	0x3c1fc98f	0.009752645
7	0xbd620388	-0.05517915
8	0xbde53349	-0.111914225
9	0xbe81aae2	-0.25325686
10	0x3dfca639	0.12336392
11	0xbe3508c8	-0.17679131
12	0xbb32510c	-0.0027208952
13	0xbe2cf560	-0.16890478
14	0x3d0d75ab	0.034536045
15	0xbd10cbcf	-0.035350617
16	0xbe6ed644	-0.23323923
17	0x3df43421	0.11924005
18	0x3da688c3	0.08131554
19	0x3d3f19b6	0.04665538
20	0xbe1502fd	-0.14551921
21	0xbda88781	-0.0822897
22	0x3d583a7a	0.052790143
23	0xbe4f9089	-0.2026998
24	0xbdc7acc8	-0.09749752
25	0x3d40d7b9	0.04708073
26	0x3e06b97f	0.13156699
27	0x3c24be47	0.010055131
28	0xbd58dc63	-0.052944552
29	0xbe0a6cc1	-0.13518049
30	0xbd32b5fe	-0.043630593
31	0x3c92de9c	0.017928414
32	0x3d892cfc	0.06698033
33	0xbdfe41ac	-0.1241487
34	0x3d2396bc	0.039938673
35	0xbda775b8	-0.0817675
36	0xbe34338e	-0.17597792
37	0xbd0344f3	-0.032048177
38	0xbe619a1d	-0.22031446
39	0xbe3f24cb	-0.18666379
40	0xbdf41f5d	-0.119200446
41	0xbde60cfa	-0.11232944
42	0xbcdf6a3f	-0.027272342
43	0x3dc4d5ca	0.096110895
44	0xbe1832e0	-0.14863157
45	0x3d96aaab	0.07356771
46	0xbe0963a0	-0.1341691
47	0xbca79455	-0.020456472
48	0xbe1caf11	-0.15301158
49	0xbe77c599	-0.24196471
50	0xbd91d134	-0.071199805
51	0x3d8daa44	0.06917241
52	0xbe419db0	-0.1890781
53	0xbbca6efa	-0.00617778
54	0xbe5824e4	-0.21107823
55	0xbe0e313c	-0.13885969
56	0xbcda10d5	-0.026619354
57	0xbcee9e53	-0.02912823
58	0xbe1b1093	-0.15143041
59	0x3dd2ed68	0.10299188
60	0x3d707ba9	0.05871168
61	0x3ce46146	0.027878415
62	0x3d8b0b91	0.067893155
63	0xbd5cf373	-0.05394311
64	0x3d9cd57a	0.07657905
65	0x3d34e0c7	0.044159677
66	0x3d95f08e	0.07321273
67	0xbe719ace	-0.2359421
68	0xbe4f9567	-0.20271836
69	0xbd55029a	-0.052004434
70	0xbe24b6af	-0.16085313
71	0x3dec18db	0.11528178
72	0xbd4d7846	-0.05016353
73	0x3dba9d2d	0.0911201
74	0x3c33462f	0.010942026
75	0x3d863266	0.065525815
76	0x3e12b753	0.14327745
77	0x3d36739d	0.04454385
78	0xbe1888d1	-0.14895941
79	0xbd6597e0	-0.056053042
80	0xb9e51eed	-0.00043701325
81	0xbdb0fa31	-0.0864147
82	0x3cc4bf2a	0.024016935
83	0xbcd07a89	-0.025449054
84	0xbdd23085	-0.102631606
85	0x3da8b67e	0.082379326
86	0xbac72667	-0.001519394
87	0xbe44929e	-0.19196555
88	0xbe36e911	-0.17862345
89	0x3dfbd0fb	0.12295719
90	0x3c517720	0.012784749
91	0xbe0f1ef6	-0.13976654
92	0xbcc59b79	-0.024121987
93	0xbdfb8b89	-0.122824736
94	0xbe6102aa	-0.21973673
95	0xbe53d669	-0.2068726
96	0xbd468a18	-0.04847154
97	0xbdd2adab	-0.10287031
98	0xbe0b040e	-0.13575765
99	0xbe2a9d36	-0.16661534
100	0xbe73ba8e	-0.23801634
101	0xbe81ad36	-0.25327462
102	0xbe6c0c22	-0.23051503
103	0xbe6ebc89	-0.23314108
104	0xbe3411cb	-0.17584912
105	0xbd5da15a	-0.054108955
106	0xbe44fc8d	-0.19236965
107	0xbe24335b	-0.16035216
108	0x3bc09012	0.0058765495
109	0xbd3ac5ea	-0.0455989
110	0xbd0b61d8	-0.034028858
111	0x3d52e78f	0.051490363
112	0x3d391272	0.045183606
113	0xbe4ec9e3	-0.20194201
114	0x3dccd404	0.10001376
115	0xbe07d3fe	-0.13264462
116	0x3d0b15f2	0.033956476
117	0x3c81b3a7	0.015832735
118	0xbe21cc68	-0.15800631
119	0xbe0193b8	-0.12654006
120	0xbdedd37f	-0.11612605
121	0xbdd2c583	-0.102915786
122	0xbe57046e	-0.20997784
123	0x3de78d7f	0.11306285
124	0xbe780a60	-0.24222708
125	0xbe4ec7e1	-0.20193435
126	0x3d17faee	0.03710454
127	0x3bdd128f	0.006746597

critic.2.weight f4 [128, 128]
0	0xbcfbe4e9	-0.030748801
1	0xbd4f456b	-0.05060331
2	0xbda0aa62	-0.07844998
3	0xbe037d33	-0.12840728
4	0x3c7395f6	0.014867296
5	0x3bd31d7f	0.006442725
6	0xbd40ddf1	-0.04708666
7	0xbe057d9c	-0.13036197
8	0xbdc3eb7a	-0.09566398
9	0xbbad2c24	-0.005284803
10	0xbdc75a0b	-0.09733971
11	0xbd566ce5	-0.052349944
12	0xbe0fc916	-0.14041552
13	0xbcb7c7d7	-0.022434158
14	0xbb0ab11f	-0.0021162701
15	0x3cfa7a5e	0.030575927
16	0x3c8ca36d	0.017167771
17	0xbccfc1b8	-0.025360927
18	0xbdcd26a8	-0.10017139
19	0xbd1b0aee	-0.03785222
20	0xbd83a74c	-0.06428394
21	0x3c57076c	0.013124328
22	0xbd7c0ba1	-0.061534528
23	0xbdc99637	-0.09843104
24	0xbca7b841	-0.020473601
25	0xbc36cf8d	-0.011157882
26	0xbd818ea6	-0.06326036
27	0xbd9a21bb	-0.07525965
28	0xbdc92894	-0.09822193
29	0x3b2cc0b4	0.0026359977
30	0x3c5762bf	0.0131461015
31	0xbdb9ebcc	-0.09078178
32	0xbd73208f	-0.059357222
33	0xbba977a6	-0.005171734
34	0xbce4f975	-0.027950982
35	0x3d0d5a71	0.03451008
36	0xbd106a0b	-0.03525738
37	0xbd974ceb	-0.07387718
38	0xbde2978e	-0.11064063
39	0xbd37c369	-0.044864092
40	0x3b33cfe8	0.0027437154
41	0xbcda4e93	-0.026648795
42	0x3cdbaa36	0.026814561
43	0xbd4e71ee	-0.05040162
44	0xbd6cf299	-0.057848547
45	0xbdbc0928	-0.09181434
46	0xbdb71777	-0.089400224
47	0xbd5505b7	-0.052007403
48	0xbddc87eb	-0.10768112
49	0xbd7723d7	-0.060336914
50	0xbdc11bfb	-0.09429165
51	0xbb6cc4cf	-0.003612805
52	0x3cd4a8b1	0.025959345
53	0xbdb7378e	-0.08946143
54	0xbd726598	-0.05917892
55	0xbdd87e0a	-0.10570915
56	0x3d1ba900	0.038002968
57	0xbdcc71e5	-0.09982661
58	0xbde72c72	-0.11287774
59	0xbcfdb3bd	-0.030969495
60	0xbccb2f39	-0.024802791
61	0x3d1dad5f	0.038495418
62	0xbda8c42a	-0.0824054
63	0xbd8671aa	-0.065646484
64	0xbd1b9bb3	-0.037990283
65	0xbc96f4ba	-0.018427242
66	0xbe0a352e	-0.13496849
67	0xbd872678	-0.06599134
68	0xbd3e440f	-0.046451624
69	0xbc7cecd9	-0.015437328
70	0x3c8461e7	0.016159965
71	0xbde10cff	-0.10988807
72	0xbaa570f2	-0.0012622161
73	0xbd9c3bcc	-0.07628593
74	0xbd75740c	-0.059925124
75	0x3c962346	0.018327367
76	0xbc7d4de2	-0.015460463
77	0xbe0db988	-0.13840306
78	0xbda9cd45	-0.08291105
79	0xbd69133e	-0.056903116
80	0xbdb929ec	-0.09041199
81	0xbdd59eff	-0.10430717
82	0x3cbb90db	0.02289622
83	0xbe0cc4d3	-0.13746957
84	0xbe02c40d	-0.127701
85	0xbdc04752	-0.09388603
86	0xbd61edc1	-0.05515838
87	0xbdc5d4fd	-0.09659765
88	0xbd9aca40	-0.075581074
89	0xbc96e955	-0.018421808
90	0xbdfd0cd4	-0.123559624
91	0xbd1985cc	-0.037481114
92	0xbdfa9c64	-0.122368604
93	0xbc90066f	-0.017581193
94	0xbdb358fb	-0.08757206
95	0xbd94cd37	-0.07265704
96	0xbba7e081	-0.0051231985
97	0xbc6acd88	-0.014331229
98	0xbdb5efda	-0.08883639
99	0xbdfec817	-0.12440508
100	0xbd2480f5	-0.040162046
101	0xbd3ca72b	-0.04605786
102	0xbdb7ecba	-0.08980699
103	0xbe093988	-0.13400853
104	0xbda6066f	-0.08106696
105	0xbdf80f87	-0.121123366
106	0xbe0ee26d	-0.13953562
107	0xbe096203	-0.13416295
108	0xbdd5215d	-0.10406754
109	0xbe059c67	-0.13047944
110	0xbe034baf	-0.1282184
111	0xbe002604	-0.12514502
112	0xbdd31be2	-0.103080526
113	0x3ca93c34	0.02065859
114	0xbd960edc	-0.07327053
115	0xbdaa6e24	-0.08321789
116	0x3b465982	0.0030265753
117	0xbd52d3b9	-0.051471446
118	0xbdc17565	-0.09446219
119	0xbd12e185	-0.035859603
120	0x3dc4e8d2	0.096147195
121	0x3c5101fe	0.012756823
122	0xbe14d783	-0.14535336
123	0x3bbe8fa5	0.0058154636
124	0xbdd53673	-0.10410776
125	0xbdf59e48	-0.119930804
126	0x3c0fb0dd	0.008770195
127	0xbcb2b316	-0.02181391
128	0x3bf6c709	0.007531051
129	0x3b9303ae	0.0044865226
130	0xbdeae133	-0.114687346
131	0x3d89e82a	0.06733735
132	0x3e000b8f	0.12504409
133	0xbda979ea	-0.082752064
134	0xbd83fabf	-0.064443104
135	0x3c2715fa	0.010198111
136	0xbd4fc600	-0.050725937
137	0x3d89834b	0.06714495
138	0xbddf4a90	-0.109028935
139	0xbd80a24b	-0.06280955
140	0xbe128d6a	-0.14311758
141	0x3db1551f	0.08658814
142	0xbdf4e4c2	-0.119576946
143	0xbd11244a	-0.035435
144	0xbd803ad7	-0.06261223
145	0xbde22b0e	-0.11043368
146	0xbe05b672	-0.13057879
147	0xbd507679	-0.050894234
148	0xbd5cbb3b	-0.053889494
149	0x3c860928	0.016361788
150	0xbd8eae68	-0.06966859
151	0xbdf0b04d	-0.11752377
152	0xbd6749dc	-0.056466922
153	0xbc88b774	-0.01668904
154	0xbd87b260	-0.06625819
155	0xbd186cdd	-0.037213195
156	0xbdb241dc	-0.08703968
157	0x3cd84902	0.026402
158	0xbdb14e37	-0.086574964
159	0x3cb077e4	0.021541543
160	0xbc66013b	-0.014038379
161	0x3ca5f323	0.020257538
162	0x3d5857b7	0.052818026
163	0x3af30144	0.0018539806
164	0xbdcad9e7	-0.09904843
165	0xbd9f06a7	-0.07764941
166	0x3cd8b5d5	0.026453892
167	0x3d8d35cb	0.06895026
168	0xbc1db5c9	-0.0096258605
169	0xbcfd466e	-0.030917373
170	0x3d107b9c	0.035274133
171	0xbcf44e6e	-0.029822554
172	0xbd2d1c97	-0.042263594
173	0xbc22afb4	-0.009929586
174	0xbc7e154c	-0.015508007
175	0xbd22791d	-0.039666284
176	0x3c41fea1	0.011840493
177	0xbd829229	-0.06375534
178	0xbd30dfe5	-0.043182272
179	0xbd338ef2	-0.043837495
180	0x3dba7aaa	0.091054276
181	0xbdc60521	-0.09668947
182	0x3d815ace	0.06316148
183	0xbdc07a3a	-0.09398313
184	0xbc5b3d36	-0.013381293
185	0xbdc0e3cc	-0.09418449
186	0xbd89240d	-0.06696329
187	0x3dc5c8f6	0.09657471
188	0x3c7295ed	0.014806253
189	0xbcb86aae	-0.022511806
190	0xbdaf2f44	-0.08553937
191	0x3d8a5a84	0.06755546
192	0xbc877d04	-0.016539104
193	0x3d8b61d9	0.06805772
194	0x3c90b40d	0.01766398
195	0xbe0ff1c5	-0.14057072
196	0xbda5d840	-0.08097887
197	0x3cb954a3	0.022623366
198	0x3d8f79ba	0.070056394
199	0xbd272c13	-0.040813517
200	0xbda06c87	-0.078332
201	0xbbda767d	-0.006666957
202	0xbdf67fda	-0.120361045
203	0xbd6c643d	-0.057712782
204	0xbc8d4927	-0.017246796
205	0xbc2485b8	-0.010041647
206	0xbce2c92f	-0.027683822
207	0x3bb00a40	0.0053723156
208	0xbe08d46d	-0.13362284
209	0x3c024998	0.007952116
210	0xbd0e2812	-0.034706183
211	0x3d36ce2f	0.044630226
212	0xbca1c32f	-0.019746391
213	0x3d0aacc5	0.033856172
214	0x3d83060c	0.06397638
215	0x3d1d20dd	0.03836142
216	0xbaa1e9a5	-0.0012352957
217	0xbdcb728e	-0.09933959
218	0xbdfca33a	-0.123358205
219	0x3cda3a96	0.026639264
220	0xbb4e29dc	-0.0031458056
221	0x3d04bf41	0.032408956
222	0x3dbb4d39	0.091455884
223	0xbddcbd4f	-0.10778295
224	0x3cca7712	0.02471498
225	0x3b11afac	0.0022229953
226	0x3d27f32f	0.041003402
227	0xbd36ff70	-0.044677198
228	0xbc907e2c	-0.017638288
229	0xbd2e41cf	-0.04254323
230	0x3db7eeea	0.08981116
231	0x3ca08715	0.019595662
232	0xbc8d3e7d	-0.01724171
233	0xbda7b6d9	-0.08189172
234	0x3dbe20a1	0.09283567
235	0xbd4a38ab	-0.04937045
236	0xbd328a96	-0.043589197
237	0x3d1b79af	0.037957843
238	0xbd5054a5	-0.050861973
239	0xbb05e614	-0.0020431327
240	0xbd8544b4	-0.06507245
241	0xbd630417	-0.055423822
242	0x3da94472	0.08265008
243	0xbd9d62ce	-0.07684861
244	0x3d1b81f5	0.037965734
245	0xbd9d8ef2	-0.0769328
246	0xbd2e25cf	-0.042516526
247	0xbd2f7f98	-0.042846292
248	0x3ca4a07e	0.02009606
249	0xbcad6fe5	-0.02117152
250	0x3db0010e	0.08593951
251	0x3c9367b0	0.017993778
252	0x3d39e0dc	0.04538046
253	0x3d1180f4	0.03552337
254	0xbd54ba68	-0.051935583
255	0x3c8c9fcb	0.017166039

critic.2.bias f4 [128]
0	0xbdb1e43c	-0.086861104
1	0xbde5e0f4	-0.11224547
2	0xbd4f88cc	-0.05066757
3	0xbe093c96	-0.13402018
4	0xbd36c617	-0.044622507
5	0xbe15175a	-0.14559689
6	0xbc423d07	-0.01185537
7	0xbd0eae77	-0.03483435
8	0xbb53f1a0	-0.0032340065
9	0xbd1c4123	-0.038148057
10	0x3cb497ca	0.022045035
11	0xbdae0a9d	-0.08498118
12	0xbda82d46	-0.0821176
13	0x3aa19c48	0.0012329901
14	0xbd384222	-0.044984944
15	0x3b93c3d5	0.004509429
16	0xbce0c0e0	-0.02743572
17	0xbcc09830	-0.023510069
18	0xbdab8dde	-0.083766684
19	0xbd957312	-0.072973385
20	0xbe11e29a	-0.14246598
21	0xbcf2d893	-0.029644286
22	0xbded826b	-0.11597141
23	0xbc1acdc3	-0.0094484715
24	0xbd98315c	-0.074312896
25	0xbe0c47f6	-0.13699326
26	0xbdc44326	-0.0958312
27	0xbd678442	-0.056522615
28	0xbe0148a2	-0.12625363
29	0xbd18ec22	-0.03733457
30	0xbe0ce57f	-0.13759421
31	0xbe029b6d	-0.12754603
32	0xbdfe60e0	-0.12420821
33	0xbd9d33ba	-0.07675882
34	0xbe02dccc	-0.1277954
35	0xbd924913	-0.07142844
36	0xbc94416c	-0.018097602
37	0x3a13c312	0.0005636673
38	0xbd55b06e	-0.05217021
39	0xbca09573	-0.019602513
40	0xbe07dc6d	-0.1326768
41	0xbdb5a4e4	-0.08869341
42	0x3908e7e1	0.00013056352
43	0xbde30bfe	-0.11086272
44	0xbbab353d	-0.0052248524
45	0xbd6d4b7a	-0.05793331
46	0xbdbd74ca	-0.09250791
47	0xbe142a49	-0.14469256
48	0xbdba1c55	-0.09087435
49	0x3babb045	0.005239519
50	0xbad5a3ec	-0.0016299463
51	0xbdcb2624	-0.09919384
52	0xbe05292c	-0.13003987
53	0x3c82882b	0.01593407
54	0xbc80dca4	-0.01573021
55	0xbdd5933a	-0.10428472
56	0xbd2e75d4	-0.04259284
57	0xbd2b1384	-0.04176666
58	0xbd7d5acf	-0.06185418
59	0xbe097765	-0.13424452
60	0x3cc2e7c3	0.023792153
61	0xbc2bd2ef	-0.010487302
62	0xbe061c0a	-0.13096634
63	0xbd55933d	-0.05214237
64	0xbced386e	-0.028957572
65	0xbd1c93bc	-0.038226828
66	0xbc8757ac	-0.016521297
67	0xbdefc850	-0.117081285
68	0xbd0ee0b8	-0.034882277
69	0xbdd07313	-0.10178199
70	0xbcc0eed9	-0.023551391
71	0xbc4652a0	-0.01210466
72	0xbe1115f5	-0.14168532
73	0xbe636e9d	-0.22210164
74	0xbcbe3ab1	-0.023221346
75	0xbd5706b0	-0.052496612
76	0xbd13e1ec	-0.036104128
77	0xbdb808a7	-0.08986025
78	0xbd4fa22c	-0.05069177
79	0x3c56067a	0.013063068
80	0xbd03d9dc	-0.03219019
81	0xbd27c506	-0.04095938
82	0xbcc23c2f	-0.023710338
83	0xbda8afcb	-0.08236655
84	0xbce5c53d	-0.028048152
85	0xbdba47cb	-0.09095725
86	0xbdff4f4d	-0.12466297
87	0xbde4a216	-0.11163728
88	0x3cb0c2c6	0.02157725
89	0xbbaba92e	-0.0052386736
90	0xbd3758d8	-0.044762462
91	0xbd341448	-0.043964654
92	0xbc704506	-0.014664894
93	0xbcbf7cef	-0.023375003
94	0xbdabe51b	-0.08393308
95	0xbdc77b2b	-0.09740289
96	0x3bc550f4	0.0060216133
97	0xbdc2c0d1	-0.09509433
98	0xbde6104d	-0.11233578
99	0xbda172bb	-0.07883211
100	0xbe02aeb3	-0.12761955
101	0xba84e107	-0.0010137864
102	0xbcac5a9e	-0.021039303
103	0xbdb5d5b5	-0.08878652
104	0x3b3f3526	0.0029175966
105	0xbdbee78e	-0.09321509
106	0x3c969999	0.018383788
107	0xbdd3a94b	-0.103350244
108	0xbdad81ed	-0.08472047
109	0x3ca7bd5b	0.020476034
110	0xbecae73e	-0.3962955
111	0x3b5428e5	0.0032373008
112	0x3ce26f2b	0.0276409
113	0xbdf0b57a	-0.11753364
114	0xbc97e926	-0.018543791
115	0x3c92018f	0.017823009
116	0xbb8bf160	-0.0042707175
117	0xbdfc1fd3	-0.123107575
118	0xbde2b6da	-0.110700324
119	0xbe119959	-0.14218654
120	0xbe103ca8	-0.14085639
121	0xbddfd554	-0.10929361
122	0xbdcb4ad5	-0.099263825
123	0xbca84552	-0.020540867
124	0xbd1c57d7	-0.038169708
125	0xbc090e5f	-0.008365243
126	0xbd93d485	-0.07218269
127	0xbdc99e28	-0.09844619

critic.4.weight f4 [1, 128]
0	0x3cd5a109	0.026077764
1	0xbc0e51db	-0.008686508
2	0xbc9d480a	-0.01919939
3	0x3cde3428	0.02712448
4	0xbd497101	-0.049180035
5	0x3d3e2b52	0.046428032
6	0xbd3fd949	-0.04683808
7	0x3c54026b	0.01294003
8	0x3d008634	0.031377986
9	0xbd035a3d	-0.03206848
10	0xbd41e8df	-0.047341224
11	0xbd2c9fbd	-0.042144526
12	0x3d38482b	0.0449907
13	0xbd0353b8	-0.032062262
14	0x3ca13aab	0.019681295
15	0xbc6217b2	-0.013799595
16	0x3d02f67b	0.031973343
17	0xbcdc6fa8	-0.02690871
18	0x3c71aa3f	0.0147500625
19	0x3d2bac4a	0.041912355
20	0x3d07cdaf	0.03315514
21	0x3ca49529	0.020090656
22	0x3cf2e2ed	0.029649222
23	0xbbe463a7	-0.0069698873
24	0xbc7d979b	-0.01547804
25	0x3d53e757	0.051734295
26	0x3b8c7147	0.0042859646
27	0xbb1fea63	-0.002440118
28	0x3c4d6feb	0.01253889
29	0x3b881fbf	0.004154175
30	0x3d105d06	0.035244964
31	0x3ab3e661	0.0013725274
32	0x3c781f8e	0.015144242
33	0x3cb760ea	0.02238508
34	0x3d316eda	0.043318607
35	0x3d539288	0.051653415
36	0x3ba9f96a	0.005187203
37	0xbc37143c	-0.011174258
38	0x3ca50cc0	0.020147681
39	0xbc628a9b	-0.013826991
40	0xbc98c7ab	-0.018649897
41	0x3cfb041b	0.030641606
42	0xbcd3f217	-0.025872273
43	0x3d099a48	0.0335944
44	0x3cad0503	0.021120554
45	0x3c3a355a	0.011365259
46	0x3c0ea2c9	0.008705803
47	0xbc2647e0	-0.010148972
48	0xbd1e3f85	-0.038634796
49	0x3ca2f0e6	0.01989026
50	0xbba23c9b	-0.0049510724
51	0xba2d805b	-0.0006618553
52	0x3d1d9f51	0.038482014
53	0x3bd9498b	0.0066310815
54	0xbd45b096	-0.04826411
55	0xbd560129	-0.0522472
56	0x3b49a9fb	0.0030771482
57	0x3cd91163	0.026497548
58	0xbd3978f4	-0.045281366
59	0x3cb62210	0.02223304
60	0x3b6a71c7	0.0035773383
61	0xb979c6bd	-0.00023820526
62	0xbcda1298	-0.026620194
63	0xbca6003e	-0.020263787
64	0x3cc2100f	0.023689298
65	0xbc2a6552	-0.010400133
66	0x3cca047d	0.024660343
67	0x3d18fede	0.037352435
68	0x3c9e4a71	0.019322606
69	0x3d3ffadb	0.046870094
70	0xbc0eee0d	-0.008723748
71	0x3c5d3aa0	0.013502747
72	0xbaabf470	-0.0013119113
73	0xbd89a47c	-0.06720826
74	0x3cff4312	0.031159911
75	0xbc1359be	-0.008993564
76	0x3c4f5231	0.012653873
77	0xbca3e1df	-0.020005165
78	0x3ca94f70	0.020667762
79	0x3b426031	0.0029659385
80	0x3b961a97	0.0045808065
81	0xbd2b2f57	-0.041793194
82	0x3cee12c1	0.029061677
83	0x3cf24a6a	0.029576499
84	0x3c12e7e7	0.008966423
85	0xbc24591f	-0.010031014
86	0xbca5eb36	-0.020253759
87	0xbb4e401e	-0.0031471322
88	0x3c656423	0.014000925
89	0xbca97816	-0.020687144
90	0x3d050a2d	0.032480408
91	0xbc0155e0	-0.007894009
92	0xbce9992c	-0.02851542
93	0xbbd59246	-0.0065176813
94	0x3d01068b	0.03150038
95	0xbcaf31c3	-0.021386033
96	0xbcd91631	-0.02649984
97	0x3cbd83c9	0.02313413
98	0x3bd76d11	0.006574281
99	0xbcca392d	-0.024685467
100	0x3d09d6d9	0.03365216
101	0xbd0714fd	-0.032979
102	0x3ce0ba09	0.027432458
103	0xbd1e8fa8	-0.03871122
104	0x39e2784a	0.000431957
105	0xbc25c6d7	-0.010118208
106	0x3c0b0f4e	0.008487536
107	0xbcc57945	-0.024105677
108	0x3c993e5f	0.018706499
109	0xbca8d611	-0.020609887
110	0x3e899b90	0.26876497
111	0x3c3b76f4	0.011441935
112	0x3ac29293	0.0014844708
113	0x3d6b939a	0.05751381
114	0xbb4f3c4d	-0.0031621635
115	0xbcbc9389	-0.023019569
116	0xbced089d	-0.028934771
117	0xbc76d7d6	-0.015066108
118	0xbcb08bf1	-0.021551104
119	0x3a967182	0.001147792
120	0xbc1fa1c4	-0.009743158
121	0xbb467fc5	-0.003028856
122	0xbc59eba4	-0.01330081
123	0x3cb3151e	0.021860655
124	0xbd25a71b	-0.040442567
125	0xbd10ba44	-0.035333887
126	0xbd0e671d	-0.034766305
127	0xbb957c27	-0.0045619193

actor.0.weight f4 [128, 27]
0	0xc0677378	-3.6164227
1	0x3eadefde	0.33972067
2	0xc05391d7	-3.3057764
3	0x3edcc018	0.43115306
4	0xbea111f9	-0.31459025
5	0xc08c44c4	-4.3833942
6	0xbf699187	-0.9123768
7	0xbefd65b1	-0.49491647
8	0xc0678fc6	-3.6181502
9	0xbf1bbffc	-0.6083982
10	0xc07bc3e2	-3.9338307
11	0xbf940b0a	-1.1565869
12	0xbeadf6c7	-0.3397734
13	0xc0698f51	-3.6493723
14	0x3fb8dddd	1.4442707
15	0x3f324b6f	0.6964635
16	0xbfac7195	-1.3472162
17	0x3f667694	0.90024686
18	0x3eca7f15	0.3955008
19	0xbf34b527	-0.70588917
20	0x3e893243	0.2679616
21	0x3ff5a266	1.9190185
22	0xc07253ff	-3.7863767
23	0xbe235f91	-0.15954424
24	0x3d09fdc9	0.033689294
25	0xc0561e1c	-3.3455877
26	0xc06ef744	-3.733842
27	0xc004e568	-2.0765018
28	0xbf1030d8	-0.5632453
29	0xc0391226	-2.8917327
30	0xc0292bf0	-2.6433067
31	0xbe948f5e	-0.2901563
32	0xbf972666	-1.1808593
33	0xc09770f5	-4.7325387
34	0xc0adbb7d	-5.4291368
35	0xbf85b0ce	-1.0444582
36	0xbfbcf81b	-1.4763216
37	0xbfbe3d4c	-1.4862456
38	0xbfe3fda3	-1.7811779
39	0xc00f8ff1	-2.2431605
40	0xbf13a267	-0.5766968
41	0xbfcb6cbc	-1.5892558
42	0x3fa72314	1.305758
43	0x3fec1f3c	1.8447032
44	0xbfef6379	-1.8702232
45	0xbea2a092	-0.3176313
46	0xc0057c83	-2.0857246
47	0x3fdf807b	1.7461084
48	0x3e9351f1	0.28773454
49	0xc0a55c2c	-5.1675014
50	0xc03b167f	-2.923248
51	0xc0bc2d23	-5.88051
52	0xbfd2a949	-1.6457912
53	0x3f1317a4	0.5745795
54	0xbeaa1896	-0.33221883
55	0xbdd3d2cf	-0.10342943
56	0x3e09e95b	0.13467924
57	0xbe3203a0	-0.17384195
58	0x3d7f889a	0.062386133
59	0xbe6b80b3	-0.22998314
60	0xbb2b3065	-0.0026121375
61	0xbe72930b	-0.23688905
62	0xbe40244a	-0.18763843
63	0xbe3f0255	-0.18653233
64	0xbe52c281	-0.2058201
65	0xbd7f459c	-0.062322244
66	0x3dfb1ae2	0.12260987
67	0xbe0c04ae	-0.1367366
68	0xbe563970	-0.20920348
69	0x3df79892	0.12089647
70	0xbdf9ae7c	-0.121914834
71	0xbe3fd813	-0.1873477
72	0x3d615e6e	0.055021696
73	0x3ddbf3d2	0.107398644
74	0xbc05c144	-0.008163754
75	0xbe09f175	-0.13471015
76	0xbd8db47c	-0.0691919
77	0xbd51d2b4	-0.051226333
78	0x3d25dba5	0.040492672
79	0xbd164bcd	-0.036693383
80	0xbe0d06ea	-0.13772169
81	0xbebcf9ae	-0.3690924
82	0xbed83a20	-0.42231846
83	0xbf706ce0	-0.9391613
84	0xbeda82e7	-0.42677996
85	0xbce00773	-0.027347302
86	0xbf4d307c	-0.80152106
87	0xbe06cf52	-0.13165024
88	0xbe9f8531	-0.31156304
89	0xbf0af619	-0.54281765
90	0xbb84bd3e	-0.0040508797
91	0xbf094a6a	-0.5362917
92	0xbcb766ab	-0.022387823
93	0xbe446138	-0.19177711
94	0xbf06be94	-0.5263455
95	0xbb5dc927	-0.003384182
96	0x3d46ac98	0.048504442
97	0xbeac9700	-0.33708954
98	0xbe832272	-0.25612217
99	0xbef8a55e	-0.48563665
100	0xbe016566	-0.12636337
101	0xbeaab12e	-0.33338302
102	0x3e791efa	0.24328223
103	0xbece43a7	-0.4028599
104	0x3ef54c99	0.47910002
105	0xbbc796b9	-0.0060909656
106	0xbed044cb	-0.40677485
107	0xbdd76906	-0.105180785
108	0xbf7fba55	-0.99893695
109	0xbfb4c236	-1.4121768
110	0xbf261a8d	-0.64884263
111	0xbf07061b	-0.5274369
112	0xbd99b496	-0.07505147
113	0xc0445b54	-3.0680742
114	0xbff17c5b	-1.8866075
115	0xbf884fad	-1.0649315
116	0xc016e10c	-2.3574858
117	0x3ec943b9	0.3930948
118	0xc00b9418	-2.180914
119	0xbeb8c364	-0.3608657
120	0xbfbbf43d	-1.4683911
121	0xbf495dfa	-0.7865902
122	0x3f20da32	0.6283294
123	0xbf1a5b46	-0.6029552
124	0xc052c993	-3.293553
125	0x3e3ab7cf	0.1823418
126	0xbf8d7e15	-1.1054102
127	0x3f03f859	0.51550823
128	0xbf2b3f60	-0.6689358
129	0xbf7f5932	-0.99745476
130	0xc04acb57	-3.1686609
131	0x3ee1617f	0.44019696
132	0x3f474436	0.77838457
133	0x3f0fb50e	0.5613564
134	0xbf27af10	-0.655015
135	0xbd65fd6c	-0.056149885
136	0xbd82c511	-0.06385244
137	0xbdff32ff	-0.124608986
138	0xbe7a95bc	-0.24471182
139	0xbc968d15	-0.01837782
140	0xbe8b4624	-0.2720195
141	0x3d43e060	0.047821403
142	0xbdd81737	-0.10551303
143	0xbe64491c	-0.22293514
144	0xbe512a1d	-0.20426221
145	0xbe2ae5db	-0.16689245
146	0xbe70559f	-0.23470162
147	0xbde4d49f	-0.11173367
148	0x3db0245f	0.08600687
149	0xbdcc9a86	-0.099904105
150	0xbdc159dd	-0.09440968
151	0xbc433f69	-0.011916974
152	0xbe2e9f74	-0.17053014
153	0xbe38e232	-0.18055037
154	0xbe3f5289	-0.18683828
155	0xbb010f06	-0.0019692793
156	0xbe02b828	-0.12765563
157	0xbdb29057	-0.08718937
158	0x3ded4e41	0.115871914
159	0x3dba1b77	0.0908727
160	0xbca9a4ed	-0.020708526
161	0xbe8432e5	-0.2582008
162	0xbf05f19a	-0.5232178
163	0xbf1513f1	-0.58233553
164	0xbf1f9216	-0.62332284
165	0xbffb40da	-1.9629166
166	0xbfa52e8b	-1.2904829
167	0xbfb2f915	-1.3982264
168	0xbf24f60d	-0.64437944
169	0xbfa3de94	-1.28023
170	0xbf3c52e6	-0.7356399
171	0x3f115a8f	0.56778806
172	0xbf28e23a	-0.65970194
173	0x3f4fd848	0.81189394
174	0xbfc444af	-1.533346
175	0xbf12a2b9	-0.57279545
176	0x3f387b9e	0.72063625
177	0xc089de2f	-4.308372
178	0xc0628a48	-3.53969
179	0xc024289e	-2.564979
180	0xc0696d8f	-3.647312
181	0xbfd91237	-1.6958684
182	0x3ea7ba8c	0.3275951
183	0x3fc8091e	1.5627782
184	0xc054704c	-3.319354
185	0x3fa6d102	1.3032534
186	0xc00ba26a	-2.181788
187	0xc0457a6e	-3.0855975
188	0x3f094863	0.5362608
189	0xbe63740c	-0.22212237
190	0xbd6e9e4d	-0.058256436
191	0x3de901ef	0.11377322
192	0xbdcf3a5f	-0.10118555
193	0x3e196e85	0.14983566
194	0xbe700c13	-0.23442106
195	0xbd8de728	-0.06928855
196	0xbdf211f6	-0.11819832
197	0xbeb0ce2c	-0.34532297
198	0xbdd06150	-0.10174811
199	0xbf5e93ce	-0.8694428
200	0xbf04ca53	-0.5187122
201	0xbe0af534	-0.135701
202	0xbf4d6f6f	-0.8024816
203	0x3eb3b90b	0.35102114
204	0x3e272bbb	0.16325276
205	0xbf39a399	-0.72515255
206	0xbf0984a0	-0.53717995
207	0xbe45cfae	-0.19317505
208	0xbe4772f5	-0.19477446
209	0xbf44b104	-0.76832604
210	0xbf3534c9	-0.7078367
211	0xbf0b77fd	-0.5447996
212	0xbe750220	-0.23926592
213	0xbf52833c	-0.822315
214	0xbd9215b7	-0.07133048
215	0xbd983a3f	-0.074329846
216	0xbf4fcf55	-0.8117574
217	0x3fb12618	1.383975
218	0xbfa0ad35	-1.2552859
219	0xc0004e3c	-2.004775
220	0xc013daf7	-2.3102396
221	0x3f005cd0	0.5014162
222	0xc005b293	-2.0890243
223	0xbfb3d3c1	-1.4048997
224	0xc0a1d3be	-5.0570974
225	0x40793ac8	3.8942127
226	0xbee5531c	-0.4478997
227	0xc0dde83b	-6.9345984
228	0x3f770528	0.9649224
229	0xc0d31f93	-6.5976043
230	0xc0997f70	-4.7968063
231	0xc0e05099	-7.0098386
232	0x3f323810	0.69616795
233	0x406280b3	3.5391052
234	0xc02cb409	-2.6984885
235	0xc08b00ba	-4.3438387
236	0x3fbf012c	1.4922233
237	0xc09900d9	-4.7813535
238	0x3ff14724	1.8849835
239	0xc105acf3	-8.354724
240	0x402a31f1	2.6592982
241	0x3edf78a7	0.43646738
242	0x3ead7ddf	0.33885095
243	0x3e9b9c93	0.30392894
244	0xbe431e67	-0.19054566
245	0x3d797ef4	0.060912088
246	0xbefd4091	-0.49463323
247	0xbed2ed48	-0.41196656
248	0xc00e3765	-2.222131
249	0xbf77421d	-0.96585256
250	0xbff88645	-1.9415976
251	0xbf2ebad3	-0.6825382
252	0xbfdb3a5b	-1.7127184
253	0xc0093e8d	-2.1444428
254	0xc041f596	-3.0306144
255	0xbfcc5f3c	-1.5966563

actor.0.bias f4 [128]
0	0xc01ca900	-2.447815
1	0xc040eb66	-3.0143676
2	0xbe806ae4	-0.2508155
3	0xbf262b43	-0.6490976
4	0xbfbad8ba	-1.459739
5	0x3c129af3	0.008948076
6	0xc00f7e11	-2.2420695
7	0xbe827d6a	-0.25486308
8	0xbffab249	-1.9585658
9	0xbfd13136	-1.6343143
10	0xbf03c9d3	-0.51479834
11	0xbf294dca	-0.6613432
12	0xbf90fde0	-1.1327477
13	0xbfdaab54	-1.7083535
14	0xc039d738	-2.903761
15	0xbd81a328	-0.06329948
16	0xc0676451	-3.6154978
17	0xbf921175	-1.1411577
18	0xc0361a6a	-2.8453622
19	0xbe13f745	-0.14449795
20	0xbfbeca38	-1.4905462
21	0xbf2d8d21	-0.6779347
22	0xbe84c457	-0.25931045
23	0xbe711b1b	-0.23545496
24	0xbe731d22	-0.23741582
25	0xbf2b52f4	-0.6692345
26	0xc02ad9de	-2.6695476
27	0xc05f1ead	-3.4862473
28	0xbea9c41b	-0.3315743
29	0xc0499a36	-3.1500373
30	0xbf89e389	-1.0772563
31	0xbf017da3	-0.5058233
32	0xbf6548b5	-0.8956407
33	0xc0795e1d	-3.8963692
34	0xbfda3727	-1.7048081
35	0xbea00db1	-0.31260446
36	0xc01afd17	-2.4216974
37	0xbd29ab4e	-0.041423135
38	0xbfaf8d02	-1.3714907
39	0xbfeb83e5	-1.8399626
40	0xc05aef60	-3.4208603
41	0xc0a18755	-5.04777
42	0xbf1860fd	-0.5952299
43	0xbe2a85ef	-0.16652654
44	0xbdb40185	-0.08789352
45	0xc03d3e59	-2.9569304
46	0xbf27b353	-0.65508
47	0xbde28020	-0.11059594
48	0xbdc04ffd	-0.093902566
49	0xbd9741f9	-0.0738563
50	0xbf925c2c	-1.1434379
51	0xc04bd7e4	-3.185052
52	0xbe14c7b9	-0.14529313
53	0xc040e2a5	-3.0138333
54	0xbd4eaf6c	-0.050460264
55	0xc0406d7d	-3.0066826
56	0xbef5a3e1	-0.47976592
57	0x3a3d6f27	0.0007226341
58	0xbe8baddc	-0.27281082
59	0xc027cb52	-2.6217847
60	0xbe5d3377	-0.21601664
61	0xbba8cef3	-0.0051516234
62	0xbe7e8d79	-0.24858655
63	0xbe8e6905	-0.278145
64	0xc02f8d5c	-2.743003
65	0xbf17cbb9	-0.5929523
66	0xc03c1f7b	-2.9394214
67	0xc0274697	-2.6136835
68	0xc02ec57a	-2.730803
69	0xbe48d8d5	-0.19613965
70	0xbea4efdd	-0.3221425
71	0xc00551db	-2.083121
72	0xc097678b	-4.7313895
73	0xc04f3c76	-3.2380652
74	0xbfe94b64	-1.8226132
75	0xbe92e643	-0.286913
76	0xbe75da14	-0.24008971
77	0xbf29568e	-0.66147697
78	0xbf928329	-1.1446277
79	0xc020c259	-2.511862
80	0xbe788ba9	-0.24272026
81	0xbe813664	-0.2523681
82	0xbebedd45	-0.3727819
83	0xc0364cac	-2.8484297
84	0xbe872d36	-0.2640168
85	0xbf4413af	-0.76592535
86	0xbea5c217	-0.3237464
87	0xc0424989	-3.0357382
88	0xbe35b126	-0.17743358
89	0xbf6d0d81	-0.9259873
90	0x3d7a11b1	0.061052028
91	0xbf171742	-0.59019864
92	0xbf4e3316	-0.805467
93	0xbd8f934f	-0.07010519
94	0xbed9f443	-0.4256917
95	0xc07b1bd5	-3.9235737
96	0xbe14a7ab	-0.14517085
97	0xbf15912b	-0.58424634
98	0xc090a63a	-4.5202913
99	0xc0686e17	-3.6317194
100	0xbea3a743	-0.31963548
101	0xbba2177d	-0.0049466477
102	0xbe607344	-0.2191897
103	0xbefc1064	-0.49231255
104	0x3cde86ad	0.027163828
105	0xc09c2890	-4.8799515
106	0xbff54e60	-1.9164543
107	0xbf78e95f	-0.97231096
108	0xbde5b695	-0.112164654
109	0xbd8f0e90	-0.069851995
110	0xbe6d251c	-0.23158687
111	0xbfbe3360	-1.4859428
112	0xbe760466	-0.24025115
113	0x3c907f0a	0.017638702
114	0x3d1eca6b	0.03876726
115	0x3d0f3ca0	0.034969926
116	0xc033c21e	-2.808723
117	0xc04b1ac7	-3.1735094
118	0xbe9a94c8	-0.30191636
119	0xc0518a46	-3.2740645
120	0xbfd3c889	-1.6545573
121	0xbe42cf39	-0.19024362
122	0xbe616951	-0.22012831
123	0xbf6ff871	-0.93738467
124	0xc05b9a51	-3.4312937
125	0xbfabe7c0	-1.34301
126	0xbd582177	-0.05276629
127	0xbef4b12b	-0.47791418

actor.2.weight f4 [128, 128]
0	0xbd6d2165	-0.057893176
1	0xbe154e90	-0.1458075
2	0xbcad166e	-0.02112886
3	0xbd14dd50	-0.036343873
4	0xbe5bf16b	-0.21478812
5	0x3b31237c	0.0027029207
6	0x3d377958	0.044793457
7	0xbea44a66	-0.32088012
8	0xbe925996	-0.28583974
9	0xbd98d075	-0.07461635
10	0xbc0a0693	-0.008424419
11	0xbdf2277a	-0.11823936
12	0xbeb593ee	-0.35464424
13	0xbdbf4257	-0.09338825
14	0xbe9a6672	-0.30156285
15	0xbdca692e	-0.09883343
16	0xbd150d09	-0.036389384
17	0xbd784e0d	-0.06062131
18	0xbe476a48	-0.19474137
19	0xbe073d0c	-0.13206881
20	0xbe0f5a06	-0.13999185
21	0xbca34a97	-0.019933028
22	0xbd25fbc6	-0.040523313
23	0xbd7ff8cd	-0.062493134
24	0xbd567169	-0.05235425
25	0xbec0a5ab	-0.37626395
26	0xbdbda603	-0.0926018
27	0xbd482da6	-0.04887166
28	0xbd393fca	-0.04522685
29	0x3d4f09f2	0.050546594
30	0xbdcb6b6b	-0.09932598
31	0xbdd494a3	-0.10379913
32	0x3c932d11	0.017965825
33	0xbe7c3475	-0.24629386
34	0x3cd04ded	0.025427783
35	0xbd6f627c	-0.05844353
36	0xbded4b1a	-0.1158659
37	0xbdda62d5	-0.10663382
38	0xbee522b7	-0.44753048
39	0xbbf3e79c	-0.0074433815
40	0xbd5b7e08	-0.05358699
41	0xbde59e46	-0.11211829
42	0xbe6a3ab8	-0.22873962
43	0x3d578128	0.052613407
44	0xbe1e4aac	-0.15458173
45	0xbe8db207	-0.27674887
46	0xbe8ee7e0	-0.27911282
47	0x3d0c8faa	0.034316696
48	0xbbe26836	-0.0069093956
49	0xbcbaf8db	-0.022823742
50	0xbe2b4286	-0.16724595
51	0xbd33e0a0	-0.04391539
52	0xbcf3a964	-0.029743858
53	0xbd165bd7	-0.03670868
54	0xbd97e3ba	-0.07416482
55	0xbd99a466	-0.0750206
56	0xbe1359e8	-0.14389765
57	0xbd91c995	-0.07118527
58	0x3cc45bf5	0.02396963
59	0xbef45b45	-0.47725883
60	0x3d140e4d	0.03614645
61	0x3bb27630	0.005446218
62	0xbd8441dd	-0.06457875
63	0xbdae38a2	-0.085068956
64	0xbeb4a7c2	-0.3528424
65	0xbd8b4c82	-0.06801702
66	0xbda6a985	-0.08137802
67	0xbbbe723c	-0.0058119576
68	0xbe9f2efe	-0.3109054
69	0xbce5d1f2	-0.028054211
70	0xbd3a79d2	-0.045526333
71	0xbe8d1df3	-0.27561912
72	0xbef967ed	-0.48712102
73	0xbeb14298	-0.3462112
74	0xbe52f505	-0.2060128
75	0xbe1d08ba	-0.1533536
76	0xbce56680	-0.028002977
77	0x3dfcf8aa	0.123521164
78	0xbee81980	-0.45331955
79	0xbe1eb51d	-0.15498777
80	0xbd18f395	-0.037341673
81	0xbae1bb9e	-0.0017222052
82	0xbda8b9b3	-0.08238544
83	0xbd8a9201	-0.06766129
84	0x3dcaac01	0.098960884
85	0x3cba6817	0.022754712
86	0xbbcb31c5	-0.0062010013
87	0x3b692a7e	0.0035578306
88	0xbc15ff11	-0.009155051
89	0xbce9d269	-0.028542714
90	0xbe30a34e	-0.17249796
91	0xbf0936d2	-0.53599274
92	0xbe221802	-0.15829471
93	0xbac74db8	-0.0015205657
94	0xbdd63303	-0.104589485
95	0xbdcaf6a4	-0.09910324
96	0x3de1d288	0.11026484
97	0x3bda7a19	0.006667387
98	0xbd82f45f	-0.06394266
99	0xbdb8af83	-0.09017851
100	0xbe043376	-0.12910256
101	0xbdef309b	-0.11679193
102	0xbcf03c9d	-0.029325778
103	0xbdbe6bda	-0.09297915
104	0xbc510193	-0.012756723
105	0xbe2a20df	-0.16614102
106	0xbd09149c	-0.03346692
107	0xbf4b0aef	-0.7931356
108	0xb9c8b57c	-0.0003828219
109	0xbd546fde	-0.051864497
110	0xbd443915	-0.047906
111	0x38e09970	0.00010709732
112	0xbb71641d	-0.0036833354
113	0x3d9e8e63	0.07742002
114	0xbbd36473	-0.0064511835
115	0xbdc57ee1	-0.09643341
116	0xbcbccc87	-0.023046745
117	0xbe8520d2	-0.26001602
118	0xbd7ec311	-0.06219775
119	0xbeba23e9	-0.36355522
120	0xbddc45f4	-0.1075553
121	0xbd505c06	-0.05086901
122	0xbc167b14	-0.009184618
123	0xbd1d3bb4	-0.038387015
124	0xbeec8c64	-0.4620086
125	0xbf306aaf	-0.68912786
126	0xbe076846	-0.13223371
127	0xbd851255	-0.06497637
128	0xbc3264b8	-0.010888271
129	0xbeb5f479	-0.3553808
130	0xbccb36af	-0.024806349
131	0x3ea7e6d6	0.327933
132	0xbe1b7c91	-0.15184237
133	0xbd685441	-0.056720976
134	0xbe8e58df	-0.27802178
135	0x3c808687	0.015689148
136	0xbf4705ae	-0.7774304
137	0x3e83b9a4	0.2572757
138	0xbe12c6ef	-0.143337
139	0xbe045fb4	-0.12927133
140	0xbee22195	-0.44166246
141	0xbec09446	-0.37613124
142	0xbe5d3ea6	-0.2160593
143	0xbda044d9	-0.07825632
144	0x3e82457e	0.25443643
145	0x3e6f4422	0.23365834
146	0xbe5987a0	-0.21243143
147	0x3da5101e	0.08059715
148	0x3ddac958	0.106829345
149	0x3d6616de	0.05617415
150	0x3bf5ff8c	0.00750727
151	0xbdff937c	-0.12479302
152	0xbbffda3d	-0.0078079985
153	0xbf089940	-0.5335884
154	0xbe20e93e	-0.15713975
155	0x3c55b542	0.0130437035
156	0xbdd31e78	-0.10308546
157	0x3d5632e3	0.052294623
158	0xbd0a3c31	-0.03374881
159	0xbeda263e	-0.426073
160	0x3d95ef6a	0.07321055
161	0xbea8d8a7	-0.32977793
162	0xbee6f720	-0.45110416
163	0x3dce8b6e	0.10085188
164	0xbd590693	-0.052984785
165	0xbe00869e	-0.12551352
166	0xbf517fe3	-0.81835765
167	0x3dc1ff3e	0.09472512
168	0x3e2ee829	0.1708075
169	0xbf1a606f	-0.60303396
170	0xbca423ff	-0.020036696
171	0x3d96c1b3	0.07361164
172	0xbcf66022	-0.030075137
173	0xbe8ebe00	-0.27879333
174	0xbc648b26	-0.013949191
175	0x3d84e1c0	0.06488371
176	0x3db572fb	0.088598214
177	0xbd88d000	-0.06680298
178	0xbd9f9b85	-0.07793335
179	0xbeed279f	-0.4631929
180	0xbe1a592e	-0.15073082
181	0xbeb895c2	-0.36051756
182	0xbcd61ff8	-0.02613829
183	0xbf98488e	-1.1897142
184	0xbd98a033	-0.074524306
185	0x3cb41286	0.021981489
186	0xbd986834	-0.0744175
187	0xbf426e85	-0.7594989
188	0x3b9ded45	0.0048195445
189	0xbd4fad1d	-0.050702203
190	0xbdcf094c	-0.10109195
191	0xbdd0ee47	-0.10201698
192	0xbf20b4de	-0.6277598
193	0x3e2e426a	0.17017522
194	0xbf27b85c	-0.65515685
195	0xbf01003c	-0.5039098
196	0xbf504802	-0.81359875
197	0x3d4961c9	0.04916552
198	0xbb52dc12	-0.003217463
199	0xbf08d2a1	-0.53446394
200	0xbe94f110	-0.29090166
201	0xbf5be7cd	-0.85900575
202	0xbfa05305	-1.2525336
203	0x3db1eace	0.086873636
204	0x3d278ea2	0.04090751
205	0xbde614a9	-0.11234409
206	0xbf27d2c0	-0.65555954
207	0xbe2e8145	-0.170415
208	0x3d7801ba	0.06054852
209	0x3dbe8683	0.09303
210	0xbcea6099	-0.028610514
211	0xbd09b40c	-0.03361897
212	0x3d8c51c5	0.06851534
213	0xbd9cfc86	-0.076653525
214	0xbd8e781c	-0.06956503
215	0xbf1987b2	-0.5997268
216	0xbd41fcb9	-0.047360156
217	0xbe82a5af	-0.25517032
218	0x3d9269ed	0.0714911
219	0xbea935fb	-0.33048996
220	0xbec70307	-0.38869497
221	0xbde25c30	-0.110527396
222	0x3db002fc	0.08594319
223	0xbe3aaacd	-0.18229218
224	0xbdb2707d	-0.08712862
225	0xbeb907c0	-0.36138725
226	0x3d988139	0.07446522
227	0x3e21eb93	0.1581252
228	0xbd5a008c	-0.053223178
229	0xbd9f3ab8	-0.077748716
230	0xbd933d40	-0.07189417
231	0xbbcaf31f	-0.006193533
232	0xbd73010a	-0.059327163
233	0xbd661534	-0.056172565
234	0xbeef9f56	-0.4680125
235	0xbf8484f5	-1.0353075
236	0xb6f4e02f	-7.297865e-06
237	0xbde87c3a	-0.11351819
238	0xbd8bff0d	-0.068357565
239	0xbeb5be06	-0.3549654
240	0x3da7470d	0.08167849
241	0xbcdde643	-0.027087336
242	0xbe3285cc	-0.17433852
243	0xb9d5f021	-0.00040805436
244	0xbee802f1	-0.45314744
245	0x3d8b7e53	0.06811204
246	0xbd50d16e	-0.050980978
247	0xbf873663	-1.0563473
248	0xbe2d8678	-0.16945827
249	0xbd67123b	-0.05641387
250	0xbcdb917b	-0.026802769
251	0x3eb854c8	0.36002183
252	0xbf2bf4f5	-0.6717065
253	0xbee977f5	-0.45599332
254	0xbdb90a3b	-0.090351544
255	0x3d79cfc4	0.060989156

actor.2.bias f4 [128]
0	0xbfa8b7a3	-1.3181041
1	0xbfd22c91	-1.641985
2	0xbff1a571	-1.8878614
3	0xc09a3d9b	-4.82002
4	0xbf15a297	-0.5845122
5	0xbfdd4381	-1.7286226
6	0xbf48b914	-0.78407407
7	0xc048d342	-3.1378942
8	0xbf128653	-0.5723621
9	0xc09acdb9	-4.8376126
10	0xbf2e026a	-0.67972434
11	0xc0a8736f	-5.264091
12	0xbf0ab60b	-0.54184026
13	0xbf0d20c7	-0.5512814
14	0xbf959982	-1.1687472
15	0xbfa96ba6	-1.3235977
16	0xbf2a839c	-0.6660707
17	0xbf8f0a44	-1.1175008
18	0xc02728a6	-2.611856
19	0xbef9cccb	-0.48789057
20	0xbe7c91fc	-0.24665064
21	0xbf922a92	-1.1419241
22	0xbf9550db	-1.16653
23	0xc022f704	-2.5463266
24	0xc08311ef	-4.095939
25	0xc00be299	-2.1857054
26	0xbf9881c6	-1.1914604
27	0xbf92312a	-1.1421254
28	0xbfa44eda	-1.2836564
29	0xc0b97604	-5.795656
30	0xbf8bbb21	-1.0916482
31	0xbd6974b9	-0.05699608
32	0xbf712ed2	-0.9421207
33	0xbfbf6eca	-1.4955685
34	0xbfa7a35d	-1.309673
35	0xbf6b8648	-0.9200177
36	0xbfcfd3f7	-1.6236562
37	0xbfafb681	-1.3727571
38	0xbf2470a0	-0.6423435
39	0xbe8b72ad	-0.27235928
40	0xbf88480e	-1.0646989
41	0xbfe308c5	-1.7737051
42	0xbf15db59	-0.5853782
43	0xbf74cc54	-0.9562428
44	0xc03a04bf	-2.9065397
45	0xbf2ac51a	-0.66707003
46	0xc0509e6a	-3.2596688
47	0xbf5cb431	-0.8621245
48	0xbd23e0bd	-0.04000925
49	0xbf838dcc	-1.0277648
50	0xc00df124	-2.217843
51	0xc02ac3bb	-2.6681964
52	0xbed2f344	-0.41201222
53	0xc095e602	-4.684327
54	0xc001650f	-2.0217931
55	0xbffae0f0	-1.9599895
56	0xbf78e472	-0.9722358
57	0xbf8cbf13	-1.0995811
58	0xbf87db0a	-1.061372
59	0xbfbb0dce	-1.4613588
60	0xbeddd990	-0.4333005
61	0xc0279ba0	-2.6188736
62	0xbfd05730	-1.6276608
63	0xbf7befef	-0.98412985
64	0xbfbc2ad1	-1.4700567
65	0xbeb64827	-0.35601923
66	0xbfb62d4e	-1.4232576
67	0xbfa69489	-1.3014079
68	0xc0a8e36e	-5.2777624
69	0xbeebc14d	-0.46045914
70	0xbf58e681	-0.8472672
71	0xbf590c1f	-0.8478412
72	0xc037584d	-2.8647645
73	0xc0d0740c	-6.514166
74	0xbf4dc5ec	-0.8038013
75	0xbf8e4b37	-1.1116704
76	0xc072f782	-3.7963567
77	0xc0370dfa	-2.860228
78	0xc0e588d3	-7.172952
79	0xbf3baa79	-0.73306996
80	0xbec82f18	-0.3909843
81	0xbf1c0fb6	-0.60961473
82	0xbf374290	-0.7158594
83	0xbee18688	-0.44047952
84	0xbf6afea0	-0.91794777
85	0xbeb4bdae	-0.35300964
86	0xbf6efb22	-0.9335195
87	0xbfa915e8	-1.320981
88	0xbf9e4d72	-1.2367384
89	0xbf84487b	-1.0334619
90	0xbed12d39	-0.40854815
91	0xbf55fb32	-0.8358642
92	0xbf3c7e8d	-0.736306
93	0xc0933056	-4.5996504
94	0xbedc3e98	-0.43016505
95	0xbffeaa05	-1.9895636
96	0xbf7b0811	-0.98059183
97	0xbff25154	-1.8931069
98	0xbf281499	-0.6565643
99	0xc01b7f83	-2.4296577
100	0xbfba7bb4	-1.4569001
101	0xbef83adf	-0.48482415
102	0xc06acb90	-3.6686745
103	0xbf89b8af	-1.0759486
104	0xbfd43448	-1.6578455
105	0xbf8e3bd1	-1.1112005
106	0xbed8c826	-0.423402
107	0xbed4ed00	-0.41587067
108	0xc025d2c0	-2.5909882
109	0xc0266370	-2.5998192
110	0xbea97182	-0.33094412
111	0xc039af58	-2.9013271
112	0xc04d881b	-3.2114322
113	0xbfcd1aa0	-1.602375
114	0xbf8b320a	-1.0874646
115	0xc008762f	-2.1322134
116	0xbf103852	-0.5633594
117	0xc0707e39	-3.757704
118	0xbe1733f8	-0.14765918
119	0xc0a3ac94	-5.1148167
120	0x3f28d98a	0.6595694
121	0xc011dcc5	-2.2790997
122	0xbf57e5e9	-0.8433519
123	0xbf140bb0	-0.57830334
124	0xbf38bada	-0.7216011
125	0xbe806f14	-0.25084746
126	0xbefbcea2	-0.49181086
127	0xbfc94d18	-1.5726652
